Chatbot_Hei/websiteapp/data.pth (torch, 10431 bytes, 6 tensors)

l1.weight f4 [8, 130]
0	0xbeefd0f8	-0.46839118
1	0x3f5a1f2c	0.85203815
2	0xbf98a59b	-1.1925539
3	0xbebd9ff2	-0.3703609
4	0xbf442839	-0.76623875
5	0x3f077abc	0.5292165
6	0xbd33a79e	-0.043861024
7	0xbef6fdcf	-0.48240516
8	0xbe86afa7	-0.26305887
9	0x3ece9b8b	0.40353045
10	0xbbb56fd8	-0.0055370145
11	0xbea9cf92	-0.33166176
12	0xbe059e41	-0.1304865
13	0x3f052aa9	0.5201822
14	0x3f6c05b1	0.92196184
15	0x3ef41415	0.4767157
16	0xbf36f774	-0.71471334
17	0x3eb05a78	0.34444022
18	0xbdf4baed	-0.11949716
19	0x3f4e0edb	0.8049142
20	0x3f8397c0	1.0280685
21	0x3f65b0fe	0.89723194
22	0xbe7f6586	-0.24941072
23	0x3f261d3e	0.6488837
24	0x3f5049b6	0.81362474
25	0xbf1d87a8	-0.6153512
26	0x3f595790	0.84899235
27	0x3eea7749	0.45794132
28	0xbf180e10	-0.5939646
29	0x3f19b810	0.6004648
30	0xbf227dd0	-0.63473225
31	0x3f2dc1b5	0.678737
32	0x3e734394	0.23756248
33	0x3fa0e9b5	1.2571322
34	0xbe81bba4	-0.2533847
35	0xbf47d096	-0.7805265
36	0x3f67730f	0.9040994
37	0xbd3591cf	-0.044328507
38	0x3e5dbe43	0.2165461
39	0x3f03e6e8	0.5152421
40	0x3e350b3f	0.17680071
41	0x3f34b3a6	0.7058662
42	0xbd881de8	-0.06646329
43	0x3ec4ab6b	0.38412032
44	0xbf06e14d	-0.5268753
45	0x3d1cd1b5	0.03828593
46	0xbe81e840	-0.25372505
47	0x3d2dcb2c	0.042430088
48	0x3f0d20ba	0.5512806
49	0x3f04bc99	0.5185028
50	0xbf372b45	-0.715504
51	0x3f5f0c68	0.87128305
52	0xbe3555fa	-0.17708579
53	0x3f318d76	0.6935648
54	0x3f5f123a	0.87137187
55	0xbe06f81c	-0.13180584
56	0x3f5f8734	0.8731568
57	0x3f5d7c1b	0.86517495
58	0xbf4e40e3	-0.8056776
59	0x3eb29080	0.3487587
60	0x3eab3940	0.33442116
61	0xbe670132	-0.2255905
62	0x3f7054eb	0.93879575
63	0x3f5b885e	0.85754955
64	0x3f0a5b57	0.54045624
65	0xbef7148e	-0.4825787
66	0x3f617481	0.88068396
67	0xbf27f342	-0.65605557
68	0x3f52c33f	0.8232917
69	0xbf29b891	-0.6629725
70	0xbecf76c8	-0.4052031
71	0xbd9e4350	-0.077276826
72	0xbe279ce0	-0.16368437
73	0x3f778d9d	0.9670046
74	0x3f501d23	0.8129446
75	0xbea2bc8f	-0.31784484
76	0x3fa8a5cd	1.3175598
77	0x3ef41c55	0.47677866
78	0xbe94a514	-0.29032195
79	0x3fe3dc46	1.7801597
80	0x3d1cc91e	0.038277738
81	0xbb3b4c0d	-0.0028579265
82	0x3e028d2d	0.12749167
83	0xbf35935f	-0.70927995
84	0xbbcdd3a3	-0.0062813326
85	0xbe8fbcb5	-0.2807366
86	0x3f12da5e	0.5736445
87	0xbe86b4be	-0.2630977
88	0x3ed70e88	0.42003274
89	0x3f8274c3	1.0191883
90	0xbf23ea2a	-0.6402918
91	0x3f633bad	0.88762933
92	0xbe83e4d4	-0.2576052
93	0x3f11686b	0.56799954
94	0x3f04e2c4	0.51908517
95	0x3f66e859	0.90198284
96	0x3f4a06fa	0.78916895
97	0x3efb2a08	0.49055505
98	0xbec2d2ba	-0.38051397
99	0x3f591c91	0.84809214
100	0x3ed91472	0.4239841
101	0x3d3a3ce7	0.045468237
102	0xbeb9e797	-0.36309502
103	0xbf421b4d	-0.7582291
104	0xbabea6b3	-0.001454553
105	0xbf48bd1a	-0.78413546
106	0xbeb81ffc	-0.35961902
107	0x3ead988c	0.33905447
108	0xbea2b401	-0.31777957
109	0xbdf3bf27	-0.11901694
110	0x3f647520	0.8924122
111	0x3f40f908	0.7537999
112	0xbe3143b6	-0.17310986
113	0xbeb805a6	-0.3594181
114	0xbf437425	-0.763491
115	0xbe1486d4	-0.14504558
116	0x3e61cfcb	0.22051923
117	0x3f42c316	0.7607893
118	0xbf700e96	-0.93772256
119	0xbfc41b1a	-1.5320771
120	0xbf973c72	-1.1815321
121	0xbf8442e1	-1.033291
122	0xbec24c8a	-0.3794902
123	0x3e91126c	0.28334367
124	0x3f26632d	0.6499508
125	0x3f46da62	0.77676976
126	0x3eeddb14	0.46456206
127	0xbd8b6b09	-0.06807525
128	0x3d57ddca	0.05270175
129	0xbd0e2a75	-0.03470846
130	0xbde6ce1c	-0.11269781
131	0x3ed0e895	0.40802446
132	0x3d564d2a	0.052319683
133	0xbd21d4ce	-0.039509587
134	0x3fc9240b	1.5714124
135	0xbf14c981	-0.5811997
136	0x3ea0bba9	0.31393173
137	0x3faccf13	1.3500694
138	0x3ec7043d	0.3887042
139	0xbec75556	-0.38932294
140	0x3f2038c7	0.62586635
141	0x3e62f8f6	0.22165284
142	0xbf8813c9	-1.0631038
143	0x3e606197	0.21912228
144	0x3eb5a6f6	0.35478944
145	0xbec47647	-0.38371488
146	0x3f823c73	1.0174698
147	0x3ee6ff68	0.45116735
148	0xbbe2ed9e	-0.006925299
149	0xbf6f19a3	-0.93398494
150	0xbe2df5d9	-0.16988315
151	0xbf9f1b80	-1.2430267
152	0xbef91450	-0.4864831
153	0x3e15d107	0.14630519
154	0xbf0679f2	-0.52529824
155	0x3fad870f	1.3556842
156	0x3f0f4cd2	0.55976593
157	0xbd645e11	-0.05575377
158	0x3e5cf299	0.21576919
159	0x3ed7030f	0.4199452
160	0xbf14e7ba	-0.58166087
161	0xbf031408	-0.5120244
162	0xbee97b9c	-0.4560212
163	0x3e88f40c	0.26748693
164	0x3f47b0ac	0.78003955
165	0x3f064358	0.5244651
166	0xbf13229b	-0.5747468
167	0xbe5e7505	-0.21724327
168	0x3f0801d0	0.53127766
169	0xbf1e21ab	-0.61770123
170	0xbe3058f0	-0.17221427
171	0xbf54d118	-0.8313155
172	0xbe3f389e	-0.18673941
173	0x3ec275ce	0.37980503
174	0x3fb15bcb	1.3856138
175	0x3d913fdc	0.07092258
176	0x3ebd985e	0.3703031
177	0x3eecafb4	0.462278
178	0xbf166544	-0.5874827
179	0x3ef9eadb	0.48811993
180	0x3f89676c	1.0734687
181	0xbf134dfb	-0.57540864
182	0xbf27449e	-0.65339077
183	0xbddda79f	-0.10822987
184	0x3f69cbeb	0.9132678
185	0xbd2a55fe	-0.041585915
186	0x3f71d306	0.9446262
187	0x3f658657	0.8965811
188	0x3e864d6e	0.2623095
189	0x3f080fef	0.5314931
190	0xbe6983d9	-0.22804202
191	0x3f3c667c	0.7359388
192	0xbf508da8	-0.8146615
193	0xbf38bbb6	-0.72161424
194	0x3ed002fa	0.4062727
195	0x3ec6933c	0.38784206
196	0xbf186bc8	-0.5953946
197	0x3f5a38fc	0.852432
198	0x3f493d84	0.7860949
199	0x3f3d8fa6	0.74047315
200	0x3f385f90	0.72020817
201	0xbf8470da	-1.034694
202	0xbf9ed596	-1.2408931
203	0xbe19a5cd	-0.15004654
204	0xbf18038a	-0.593804
205	0xbe139a18	-0.14414251
206	0xbf722fc9	-0.94604164
207	0xbeb73ebf	-0.3579006
208	0x3f1b7ac2	0.6073419
209	0x3f8934b8	1.0719213
210	0x3be0f034	0.006864572
211	0x3ec36b1c	0.38167655
212	0x3f29d2bd	0.66337186
213	0x3f9aa7be	1.2082441
214	0x3defdd9a	0.11712189
215	0x3ea4b349	0.32168034
216	0x3f268e2a	0.65060675
217	0x3e641124	0.22272164
218	0xbf4efcd6	-0.8085455
219	0xbf083fbd	-0.53222257
220	0x3f04e155	0.5190633
221	0xbf4842a3	-0.7822668
222	0x3f563a6d	0.836829
223	0x3e09d4bc	0.13460058
224	0x3d9bfd43	0.07616665
225	0xbeda7aed	-0.4267191
226	0xbf1a99c8	-0.603909
227	0x3f0272b4	0.50956273
228	0xbcade29d	-0.021226222
229	0xbf28dddf	-0.6596355
230	0x3f074d0c	0.5285194
231	0x3ebcca04	0.36872876
232	0x3f094d0b	0.53633183
233	0xbe709a44	-0.23496348
234	0xbf1e9cae	-0.61957824
235	0xbea6330c	-0.3246082
236	0x3f451216	0.7698072
237	0xbe095634	-0.1341179
238	0x3ec58b97	0.3858306
239	0x3eddb0a8	0.4329884
240	0xbe48f380	-0.19624138
241	0x3ecd50fa	0.40100843
242	0x3cd48d96	0.02594642
243	0x3f24848f	0.6426477
244	0xbe41b1fc	-0.18915552
245	0x3cae5871	0.021282407
246	0x3ef379c8	0.4755385
247	0x3ef46bbd	0.47738448
248	0xbf0c7e67	-0.54880375
249	0x3f50b332	0.8152343
250	0xbec80632	-0.39067227
251	0x3f7435f2	0.95394814
252	0xbe557777	-0.20846353
253	0xbebc67f1	-0.3679805
254	0xbd86eb7e	-0.06587885
255	0x3e9ba502	0.30399328

l1.bias f4 [8]
0	0x3f352e34	0.70773625
1	0x3f8d849b	1.1056093
2	0x3f40ba1a	0.7528397
3	0x3e98f472	0.29873997
4	0x3f2ba68a	0.67050993
5	0x3f2548a0	0.6456394
6	0x3f995064	1.1977658
7	0x3f927e23	1.1444744

l2.weight f4 [8, 8]
0	0xbf0d1810	-0.5511484
1	0x3fdb26fb	1.7121271
2	0x3f99fa62	1.2029536
3	0xbf81cc69	-1.0140506
4	0xbf3d51c9	-0.7395292
5	0xbf7d3695	-0.9891141
6	0x3ffcf2ab	1.9761556
7	0x3da54a2f	0.0807079
8	0x3c3c3959	0.011488282
9	0x3fe4bae4	1.7869534
10	0xbfaede8f	-1.366167
11	0x3f8549bb	1.0413126
12	0xbf041f09	-0.51609856
13	0x3de40fa5	0.111357965
14	0x3f36eabc	0.71451926
15	0x403efc35	2.9841435
16	0xbf43f274	-0.7654183
17	0x3e6bc0ca	0.23022762
18	0x3fa46c30	1.2845516
19	0x3fa1eeae	1.2650964
20	0xbf2af51b	-0.6678025
21	0xbee23be9	-0.44186333
22	0x3faa01ee	1.3281839
23	0xbf884e74	-1.0648942
24	0x4020c53a	2.5120378
25	0xbfab1232	-1.3364928
26	0x3fd43738	1.6579351
27	0xbee4f63b	-0.4471911
28	0x3f9a05a4	1.2032971
29	0xbf3022d0	-0.6880312
30	0x3fadbc46	1.3573081
31	0x3f202efc	0.6257169
32	0xbe668e1a	-0.22515145
33	0x3f24027e	0.640663
34	0xbf28eb50	-0.6598406
35	0x3f805a0e	1.0027483
36	0x3f78063e	0.96884525
37	0x3d9573fd	0.07297514
38	0x3eb1d8a8	0.34735608
39	0x3f27ea73	0.65592116
40	0xbf698370	-0.9121618
41	0x3ee2c744	0.44292653
42	0x3ff51b5b	1.9148973
43	0x3f66681b	0.900026
44	0x401c671b	2.443793
45	0xbe01be0d	-0.12670155
46	0xbf5ec228	-0.8701501
47	0x3fa2f545	1.27311
48	0x4004bd4d	2.074054
49	0x3fd6a1d3	1.6768135
50	0x3e58078b	0.21096627
51	0x3fbeaf77	1.4897298
52	0xbf105498	-0.5637908
53	0x4040ca61	3.0123522
54	0x3eb45831	0.35223535
55	0xbfc07c9f	-1.5038031
56	0x3f4c19df	0.79726976
57	0x3f95c75f	1.1701468
58	0xbfa0183f	-1.2507399
59	0x3fd64dfe	1.6742551
60	0x40082ba8	2.1276646
61	0xbfcecd5b	-1.615642
62	0x3f7064bd	0.93903714
63	0xbddf8056	-0.1091315

l2.bias f4 [8]
0	0x3f946c11	1.1595479
1	0x3e7822ba	0.24231997
2	0xbeb3299b	-0.3499268
3	0x3e94bb49	0.29049137
4	0xbf954484	-1.1661534
5	0xbeef67cb	-0.46758875
6	0xbecc038d	-0.3984646
7	0x3f665a31	0.8998137

l3.weight f4 [43, 8]
0	0x3ef2f4bc	0.47452343
1	0xbd6e8d80	-0.058240414
2	0xc04da83f	-3.213394
3	0x3eb2328f	0.34804198
4	0xbf46ab15	-0.776048
5	0xbf9d9544	-1.2311177
6	0xc0323140	-2.784256
7	0x3f9daf69	1.2319156
8	0xbf6aaa2f	-0.9166593
9	0x3e2225c6	0.15834722
10	0xbee91ea2	-0.45531183
11	0xbf8b34d2	-1.0875494
12	0x3f1ab600	0.6043396
13	0x3ec33894	0.38129103
14	0xbc778ee7	-0.015109754
15	0x3d878602	0.06617357
16	0xbfe55340	-1.7916031
17	0x3edca599	0.4309509
18	0xbf8a9f64	-1.0829892
19	0xc0123aa3	-2.284829
20	0xbed7400d	-0.42041054
21	0xc015cd5b	-2.340659
22	0x3f3b8610	0.7325144
23	0xbf1a5741	-0.6028939
24	0xbf8cb6f7	-1.0993336
25	0x3da78aac	0.081807464
26	0xbf591ae2	-0.84806645
27	0xbd2bae19	-0.04191408
28	0xbc151444	-0.00909907
29	0xbf355c93	-0.7084438
30	0x3e266325	0.16248758
31	0x3ede547d	0.43423834
32	0xbfb9a013	-1.4501976
33	0xc019a643	-2.4007728
34	0xbf937082	-1.151871
35	0x3ecd749a	0.40128022
36	0xbf3125e8	-0.69198465
37	0xc0009570	-2.009121
38	0x3f627940	0.8846626
39	0xbf81e43b	-1.0147775
40	0xc0340b0f	-2.813175
41	0xbf0beb15	-0.5465558
42	0xbfad1b26	-1.352391
43	0x3f0c014e	0.5468949
44	0x3e86d241	0.26332286
45	0xbe35d340	-0.17756367
46	0x3e0cdd68	0.13756335
47	0xbe8a07cd	-0.26959077
48	0xbb72264d	-0.0036949099
49	0xbffe4a08	-1.9866343
50	0xbfeb242c	-1.8370414
51	0x3f2e18d9	0.68006665
52	0xc017bb19	-2.3707945
53	0x3f480157	0.78127044
54	0xbf8959a3	-1.073048
55	0xbf0fb875	-0.56140834
56	0xbed81f40	-0.42211342
57	0xbf00a6cd	-0.5025452
58	0x3e835a33	0.25654754
59	0x3e0dd753	0.13851671
60	0xbe63308d	-0.2218649
61	0xc025706c	-2.5849867
62	0x3e55c215	0.20874818
63	0xbda8759e	-0.08225559
64	0xbea9e09d	-0.3317918
65	0xbf690300	-0.910202
66	0x3ea6f484	0.32608426
67	0xbfb94c4b	-1.4476408
68	0xbed7d1e4	-0.4215232
69	0x3edcae94	0.43101943
70	0x3ef09ad1	0.46993116
71	0xbf98c930	-1.1936398
72	0x3f330e8a	0.6994406
73	0xbe54b85f	-0.20773457
74	0xbe71d68f	-0.23617004
75	0x3c987b8c	0.0186136
76	0xc03f173d	-2.9857934
77	0xc04cd0bb	-3.20024
78	0xbe859d7b	-0.2609671
79	0x3e85db48	0.2614386
80	0x3f0b7f3b	0.54491013
81	0x3e66c469	0.22535862
82	0xbed41ff9	-0.41430643
83	0xc0089a32	-2.1344113
84	0xbe211aae	-0.15732834
85	0xbba3a389	-0.00499386
86	0xbda6ec7d	-0.08150575
87	0xbf64a867	-0.8931946
88	0x3e8d98fa	0.27655774
89	0xbea16cd3	-0.3152834
90	0x3f5449f6	0.82925355
91	0xbf8879c9	-1.0662166
92	0xbdedbef9	-0.11608691
93	0xbd5c7aba	-0.05382798
94	0xbf170b93	-0.59002036
95	0x3d21eed5	0.03953441
96	0xbe053375	-0.1300791
97	0xbe5f1c3e	-0.21788117
98	0x3d61df1b	0.05514441
99	0xbf2ed9f9	-0.6830135
100	0xbe75a6cf	-0.23989414
101	0xbf3e860b	-0.74423283
102	0x3e4148b9	0.18875398
103	0x3a31c140	0.00067808107
104	0xc032d27d	-2.7940972
105	0x3f4c2950	0.7975054
106	0xbf95ffa5	-1.1718642
107	0xbf1fd8a1	-0.62439924
108	0x3ed740b7	0.4204156
109	0x3f2ab70a	0.66685545
110	0xbfccc507	-1.5997628
111	0x3ce40cad	0.027838076
112	0xbe60b4d2	-0.21943977
113	0xbda5d73c	-0.08097693
114	0xc015bbed	-2.339595
115	0x3f5dd485	0.86652404
116	0xbf815325	-1.0103499
117	0xc024f421	-2.5774004
118	0x3e094114	0.13403732
119	0xbfa708e9	-1.3049594
120	0xbe9c8120	-0.30567265
121	0xbd8dd90f	-0.06926166
122	0xbf91cc8b	-1.1390547
123	0x3db936e3	0.09043672
124	0xbf59cd7d	-0.85079175
125	0xbe036fd4	-0.12835628
126	0x3e93d342	0.28872114
127	0xbfce5981	-1.6121064
128	0x3e8dc5d6	0.2769
129	0x3f05b9c5	0.52236587
130	0xbfaad6a3	-1.3346752
131	0xc00e92be	-2.2277064
132	0x3ec9e87c	0.39435184
133	0xbfbeb904	-1.4900212
134	0x3e463c26	0.19358882
135	0x3bdd77dd	0.0067586736
136	0xbfa4c89b	-1.287372
137	0x3e6d5f19	0.23180808
138	0xbfdc8a69	-1.722974
139	0xbf711265	-0.9416869
140	0x3e1e0938	0.15433204
141	0xc033f20d	-2.8116486
142	0x3f3d6d92	0.73995316
143	0x3e238681	0.15969278
144	0xc0370496	-2.859655
145	0x3eeb8cec	0.46005952
146	0xbe590a94	-0.21195441
147	0xc00701b3	-2.1094787
148	0x3e2befe7	0.16790734
149	0xbe3801e8	-0.17969477
150	0x3e876897	0.26446983
151	0x3f56b4d8	0.83869696
152	0x3f570850	0.8399706
153	0x3ed76ba2	0.42074305
154	0x3dd8fdae	0.105952606
155	0xbf8d5a85	-1.1043249
156	0xbfce260f	-1.6105365
157	0xc0266f4b	-2.6005428
158	0x3e9c8ebc	0.30577648
159	0xc00899e8	-2.1343937
160	0xbe6213bb	-0.22077839
161	0xc01aa9c1	-2.416611
162	0xbfada3c3	-1.3565601
163	0x3ed4acf7	0.41538212
164	0x3f021c64	0.5082457
165	0x3ee7bcd3	0.4526125
166	0xc049def3	-3.1542327
167	0x3f4dfde6	0.80465543
168	0x3de4f1c9	0.11178929
169	0x3f46b543	0.77620333
170	0xc01dfaa2	-2.4684224
171	0x3eef5c73	0.4675022
172	0xbfdbb417	-1.7164334
173	0xbec879ed	-0.39155522
174	0xc01fcc80	-2.4968567
175	0xbe80a2d0	-0.25124216
176	0x3f28dded	0.6596363
177	0xbf06c8f0	-0.52650356
178	0xbcfef522	-0.031122748
179	0x3e079e91	0.13244082
180	0xbfe39cd8	-1.778224
181	0x3f4eccf8	0.8078151
182	0xc01afc4d	-2.4216492
183	0xc00246fa	-2.035582
184	0xbf32ae80	-0.69797516
185	0xbdd93d46	-0.1060739
186	0xbf28677d	-0.6578291
187	0x3d84f6c7	0.064923815
188	0x3ead8105	0.33887497
189	0x3f48adf7	0.7839045
190	0xc025c20b	-2.5899684
191	0xbdea8b43	-0.11452343
192	0xc008da58	-2.1383266
193	0x3f814ad2	1.0100958
194	0xbfa4d772	-1.2878249
195	0x3cad7a57	0.0211765
196	0x3e16b5f9	0.14717855
197	0xbeefc311	-0.4682851
198	0xbd35f22b	-0.044420402
199	0xbfc80426	-1.5626266
200	0x3ebd0cff	0.36923978
201	0xc017f65f	-2.3744123
202	0xbfdb4344	-1.7129903
203	0x3f3ae415	0.73004276
204	0xbfc9ffbb	-1.5781168
205	0xbf5371f3	-0.8259575
206	0xbf686a43	-0.9078714
207	0x3f585bf5	0.84515315
208	0x3eecdcab	0.46262106
209	0xbeb02e3c	-0.34410274
210	0xbfbe0e71	-1.4848157
211	0x3ec418e2	0.38300234
212	0xbff1dee9	-1.8896152
213	0xc03e40f5	-2.9727147
214	0xbe0c47ec	-0.13699311
215	0x3f1fbce8	0.62397623
216	0xbfdf7f19	-1.7460662
217	0xbf8e07eb	-1.1096166
218	0x3dd726de	0.1050546
219	0xbe6dbe28	-0.2321707
220	0x3e5831b3	0.21112709
221	0x3f402a31	0.7506438
222	0x3dea20d0	0.1143204
223	0xbd702355	-0.058627445
224	0x3f1935b7	0.5984759
225	0x3ddbe04f	0.10736143
226	0x3e96d826	0.29461783
227	0xbfd3dd99	-1.6552001
228	0xbe0c680a	-0.13711563
229	0xc013fe1f	-2.3123853
230	0xbecfd10e	-0.40589184
231	0x3f068413	0.5254528
232	0x3d6e1f2e	0.058135204
233	0x3f187e6d	0.5956791
234	0xc007587e	-2.1147761
235	0xc00e5f84	-2.2245798
236	0x3e669c46	0.22520551
237	0x3eb29211	0.34877065
238	0xbf94e1a2	-1.1631358
239	0x3f397ab2	0.72452843
240	0x3e363058	0.17791879
241	0x3f635909	0.8880773
242	0xc010d319	-2.2628844
243	0xbe306664	-0.17226559
244	0x3e7644e8	0.24049723
245	0xbfc0937a	-1.5045006
246	0xbf4a392f	-0.78993505
247	0x3e6d3fbd	0.23168845
248	0x3e781ffb	0.2423095
249	0xbfb38616	-1.4025295
250	0x3eae707f	0.34070203
251	0x3f187de0	0.5956707
252	0xbec91eb7	-0.39281246
253	0x3d550cc3	0.052014124
254	0xbfaedcde	-1.3661153
255	0xbe8ee465	-0.27908626

l3.bias f4 [43]
0	0x3f455db7	0.7709612
1	0xbefa9d13	-0.48947963
2	0xbe1e873a	-0.15481272
3	0xbf0d7383	-0.5525438
4	0x3f62da3c	0.8861425
5	0xbef33e54	-0.4750849
6	0x3ecd2d77	0.4007375
7	0xbf44fb9d	-0.7694643
8	0xbdd997b9	-0.10624642
9	0x3ef97883	0.48724756
10	0xbed2af9c	-0.41149604
11	0xbf189280	-0.5959854
12	0xbf4ce931	-0.8004332
13	0x3ee03c23	0.4379588
14	0xbe798b62	-0.24369577
15	0xbe0c9115	-0.1372722
16	0xbe9fb743	-0.31194505
17	0x3dfde2a4	0.12396744
18	0xbdaf2115	-0.08551232
19	0x3eafd0e9	0.34339073
20	0xbdbca689	-0.092114516
21	0x3f13b733	0.57701415
22	0x3e30be6f	0.17260145
23	0xbe126cbb	-0.1429929
24	0x3ec56fd4	0.3856188
25	0x3ee359bc	0.444044
26	0x3f09bda1	0.53804976
27	0xbec4643c	-0.38357723
28	0xbe7466fc	-0.2386741
29	0xbbf93829	-0.0076055718
30	0xbda60616	-0.081066296
31	0xbf049933	-0.51796263
32	0xbebe0d63	-0.37119588
33	0xbdf878a0	-0.121323824
34	0xbdafa208	-0.08575827
35	0xbf1501bd	-0.5820578
36	0x3d7234b0	0.059132278
37	0x3dd51ee6	0.10406284
38	0xbec173d8	-0.37783694
39	0xbe05b7da	-0.13058415
40	0xbed07add	-0.40718737
41	0x3f067365	0.5251983
42	0x3f249af3	0.64298934
